lstm_model_weights.pth (torch, 43545 bytes, 5 tensors)

lstm.weight_ih_l0 f4 [180, 9]
0.11129911 0.12269605 -0.03661823 0.1367138 -0.031400524 0.036104854 -0.07509716 0.088205986
0.13020907 -0.06650007 0.17654192 0.07343773 0.15906382 0.10145118 0.1501102 0.016541597
0.17228258 0.07557715 -0.025971442 0.08635008 -0.022595068 0.0322204 0.006073503 0.16837963
-0.0855247 -0.025515871 -0.0012066384 -0.04944586 0.05958074 -0.10402116 0.1820286 -0.058061548
0.18861358 0.059161015 -0.0048804283 0.13109666 0.0012580135 0.098115265 -0.0057523632 -0.0692426
0.022002943 -0.060126524 0.042654797 0.11465742 0.06766309 -0.0931439 0.05778428 -0.0013792738
0.04743819 -0.1215546 -0.17900918 -0.08693575 -0.14121492 0.09560198 0.06774268 0.09014294
0.07336581 0.026082506 0.13856885 -0.0748511 0.024575869 -0.087552465 0.058764987 0.0036252905
0.11078177 0.02994918 0.19264577 0.04192756 0.054094523 -0.023530528 0.20613106 0.11261003
0.17424992 -0.088629745 -0.11566973 -0.082012095 -0.077100925 0.09292843 0.07233544 0.14287011
-0.0591872 -0.06931128 0.11665324 -0.02568773 0.12875248 0.0018308772 0.13372847 -0.09340078
-0.05243534 0.06586122 0.023748765 -0.04610884 0.08074078 0.09312796 -0.10792178 -0.081806764
0.13806881 -0.056369666 -0.059136212 -0.14261334 -0.080902845 0.03920104 -0.016056882 -0.11996342
-0.0016381072 -0.10594696 -0.13931279 -0.09506686 -0.0946995 -0.055310298 0.18642704 0.068313435
0.08764311 -0.09036125 -0.06946717 -0.022092473 0.04899675 -0.08773437 -0.015329697 -0.044128772
0.049330633 -0.009907143 0.048864868 -0.05898035 -0.07600451 -0.062683724 -0.0011421106 -0.060674313
0.17760454 0.028686427 0.22547191 0.14914988 -0.066542186 0.1528273 0.0040891278 -0.057276044
-0.120401874 -0.14589167 0.047942847 0.021028103 0.100256726 -0.12590598 0.13422003 -0.0880542
-0.04896883 0.0074424525 0.053449593 0.09653943 0.11606215 -0.14007138 0.017119912 -0.08584391
-0.03783904 -0.091503836 0.15903728 -0.088163145 0.10313649 0.07337873 0.077007614 -0.06566345
0.1463072 0.042157296 0.05452972 -0.09248449 0.09915499 0.016705602 -0.027122458 0.177143
0.066444494 -0.05679613 -0.051505525 0.039549805 0.1359681 0.011959488 -0.030372439 0.0177974
-0.03425066 0.08784828 0.16306126 -0.09637835 0.068296015 0.11433693 0.062295485 -0.01510671
0.12766637 0.12983543 0.08455437 0.00527492 -0.009776436 0.04419683 0.0056524444 -0.014814937
0.12750673 0.15576872 0.021482585 -0.01158016 0.020284407 0.007590674 0.039468955 0.04656982
-0.13156486 -0.04964533 0.1853018 0.11161592 0.02441137 -0.07034895 -0.07384309 -0.07958139
0.008866505 0.106757596 0.15482572 0.18990125 -0.021353956 -0.023995098 0.055758078 0.21812949
0.016045943 -0.049841534 0.051000305 -0.07101648 -0.028412197 0.15008545 -0.0017765665 -0.029103605
-0.14577118 0.120155916 0.1285511 0.07064884 -0.09075615 -0.09027239 -0.075855605 0.19703166
0.08787652 0.1422222 0.12952943 0.09617381 0.05296357 -0.05367054 -0.042861477 -0.03722733
0.12990488 -0.03446315 0.0040537925 -0.08264536 -0.022244267 -0.10050981 -0.09106354 0.098973595
-0.00109456 0.10380618 -0.028090453 -0.091997124 0.013119532 -0.028520672 -0.004248572 -0.09729227
00000000: caf0 e33d 1148 fb3d fffc 15bd b4fe 0b3e
00000010: d69d 00bd afe2 133d 8acc 99bd 57a5 b43d
00000020: 8755 053e 3031 88bd 68c7 343e 8566 963d
00000030: a0e1 223e a3c5 cf3d 7db6 193e 3e82 873c
00000040: d86a 303e 31c8 9a3d 10c2 d4bc 50d8 b03d
00000050: 4b19 b9bc 8af9 033d 3c04 c73b b66b 2c3e
00000060: 9327 afbd a906 d1bc 1128 9eba be87 4abd
00000070: ef0a 743d 0c09 d5bd b565 3a3e f2d1 6dbd
00000080: eb23 413e d252 723d 00ec 9fbb 343e 063e
00000090: eee3 a43a a8f0 c83d 527e bcbb 10cf 8dbd
000000a0: 843f b43c 3b47 76bd ccb6 2e3d 82d1 ea3d
000000b0: f292 8a3d 3bc2 bebd 36af 6c3d c0c8 b4ba
000000c0: 8c4e 423d 9ef1 f8bd 2f4e 37be 5f0b b2bd
000000d0: a59a 10be f9ca c33d adbc 8a3d dd9c b83d
000000e0: d040 963d fbaa d53c fee4 0d3e 894b 99bd
000000f0: 5553 c93c b54e b3bd 8eb3 703d 4896 6d3b
00000100: 8de1 e23d fc57 f53c ef44 453e 3cbc 2b3d
00000110: 3892 5d3d 18c3 c0bc 0514 533e 16a0 e63d
00000120: 926e 323e 8383 b5bd 40e4 ecbd f5f5 a7bd
00000130: 17e7 9dbd 4351 be3d 9a24 943d 8b4c 123e
00000140: 476e 72bd 13f3 8dbd e5e7 ee3d 136f d2bc
00000150: b1d7 033e 0bfa ef3a 1ef0 083e e848 bfbd
00000160: 70c6 56bd 3fe2 863d c58c c23c 9fdc 3cbd
00000170: 6c5b a53d dfb9 be3d 1806 ddbd 4e8a a7bd
00000180: e961 0d3e e1e3 66bd d038 72bd 3b09 12be
00000190: 64b0 a5bd 4591 203d b989 83bc 62af f5bd
000001a0: c2b5 d6ba b8fa d8bd 03a8 0ebe 6ab2 c2bd
000001b0: d0f1 c1bd 0d8d 62bd bbe6 3e3e eae7 8b3d
000001c0: 3b7e b33d 520f b9bd ce44 8ebd 46fb b4bc
000001d0: d1b0 483d 14ae b3bd 6929 7bbc 5fc0 34bd
000001e0: eb0e 4a3d 9251 22bc 8726 483d 6195 71bd
000001f0: 41a8 9bbd 5360 80bd dfb2 95ba a185 78bd
00000200: f7dd 353e ccff ea3c 1ce2 663e bfba 183e
00000210: 4547 88bd c27e 1c3e 17fe 853b 499a 6abd
00000220: 4295 f6bd a064 15be b85f 443d 2143 ac3c
00000230: 6653 cd3d 7fed 00be fa70 093e c355 b4bd
00000240: 8a93 48bd d1df f33b f6ed 5a3d 77b6 c53d
00000250: feb1 ed3d df6e 0fbe 0f3f 8c3c efce afbd
00000260: 1cfd 1abd 5d66 bbbd abda 223e e18e b4bd
00000270: 3939 d33d 9647 963d 2bb6 9d3d 8f7a 86bd
00000280: 8ed1 153e 21ad 2c3d 8e5a 5f3d 8268 bdbd
00000290: c511 cb3d 30da 883c eb2f debc f964 353e
000002a0: 0d14 883d 0fa3 68bd 75f7 52bd fafe 213d
000002b0: 393b 0b3e baf1 433c 9fcf f8bc dacb 913c
000002c0: 6c4a 0cbd cde9 b33d 88f9 263e 0362 c5bd
000002d0: c8de 8b3d 7b29 ea3d 8d29 7f3d 2282 77bc
000002e0: f9ba 023e 94f3 043e d72a ad3d 3cd9 ac3b
000002f0: 582d 20bc bc07 353d 2438 b93b 59ba 72bc
00000300: 2091 023e d681 1f3e 3ffc af3c b6ba 3dbc
00000310: 7c2b a63c 30bb f83b 33aa 213d ffbf 3e3d
00000320: f0b8 06be e758 4bbd c1bf 3d3e e396 e43d
00000330: 5afa c73c 1c13 90bd 0c3b 97bd 91fb a2bd
00000340: d144 113c baa3 da3d a28a 1e3e 7975 423e
00000350: 7eee aebc 5e91 c4bc 9562 643d 565d 5f3e
00000360: c872 833c a326 4cbd b2e5 503d 1771 91bd
00000370: b2c0 e8bc 00b0 193e aedb e8ba af6a eebc
00000380: 0a45 15be 4e14 f63d e6a2 033e 57b0 903d
00000390: 5cde b9bd bbe0 b8bd 2f5a 9bbd abc2 493e
000003a0: 9bf8 b33d b2a2 113e 5da3 043e c6f6 c43d
000003b0: 54f0 583d a4d5 5bbd 848f 2fbd af7b 18bd
000003c0: c905 053e 3b29 0dbd add5 843b f841 a9bd
000003d0: 9c39 b6bc 16d8 cdbd 857f babd abb2 ca3d
000003e0: 5777 8fba 5698 d43d f31d e6bc fd68 bcbd
000003f0: 4ef3 563c 2fa4 e9bc 9b37 8bbb 2b41 c7bd

lstm.weight_hh_l0 f4 [180, 45]
-0.13505518 -0.024164237 0.10156548 -0.0069874544 0.10868053 -0.043997824 0.06609646 -0.047593705
0.05336976 0.027290361 0.07874557 -0.06946519 -0.037972167 0.022952883 -0.18099827 -0.109347366
-0.13075186 0.00411453 0.09355042 -0.019021235 0.001028409 0.051331073 -0.118005954 0.13147816
-0.019751478 -0.10759186 0.19591716 -0.09509006 0.01939827 -0.13674834 -0.014239734 -0.063642085
0.03311159 -0.08060995 0.100231804 -0.123360164 0.08613958 -0.14483738 0.10412446 0.00045866214
-0.003981486 -0.026776118 0.09501484 0.046861608 -0.021490626 0.029845085 -0.071078114 0.13847783
-0.005278865 -0.0029243676 -0.041388117 0.08762755 -0.07183117 0.106371835 0.053273987 0.1067221
0.017137997 -0.1634701 0.0825965 -0.061842322 -0.06576903 -0.051586665 0.14672649 0.15026668
-0.00020144615 0.043415304 -0.17205739 0.022438755 -0.10480709 0.06345633 -0.11825782 -0.03619952
0.09415646 0.17794962 -0.057457503 -0.114654265 -0.013145438 0.09405506 0.0056798435 -0.011768034
-0.13226473 0.09712791 0.13807395 -0.043429457 0.08199419 0.10372102 0.15009485 -0.04887085
-0.03220086 0.1289003 0.072920285 0.18157417 -0.014312588 0.032101028 0.13160144 -0.07449642
0.059085265 -0.0015173627 0.12622632 -0.09082502 0.022990212 0.0781571 -0.1649193 -0.14782394
-0.092665434 0.07205879 0.07211798 -0.07143738 0.056827966 -0.103984796 -0.09390721 0.101166815
0.06548715 -0.0074867066 0.030826196 -0.019960472 0.055506326 -0.028080523 -0.05703841 0.12565543
-0.018466612 0.037126865 -0.034055427 0.096878745 0.14026766 0.066555835 0.06757771 0.11739056
0.022707818 0.05909621 0.1664882 0.16857316 -0.08595159 0.10374618 0.10430686 0.009358832
0.15817274 -0.05747791 0.07302957 0.17516856 -0.07649608 -0.0649578 -0.12977962 -0.0040373784
-0.14926751 -0.020357082 0.036672365 0.08412244 0.07382259 0.05984401 0.04331519 -0.11571075
-0.09153928 0.031724617 0.12680587 -0.013995724 -0.034717344 -0.10219165 -0.04826682 -0.120768
0.13432243 -0.018911423 -0.13239208 0.041597605 0.028714687 -0.046551406 0.034446403 0.11166807
-0.12268537 -0.08706525 -0.023528216 -0.11723385 -0.15943809 0.14789778 0.0065207416 -0.05676936
-0.037229806 -0.13043387 0.09273587 -0.0034837194 -0.101297066 -0.14088356 0.059660833 0.004585935
-0.03452307 -0.058348004 -0.09255185 0.028216459 0.094167605 -0.06433096 -0.011952176 -0.09452791
-0.04729416 0.1509561 0.002844367 0.16564487 -0.007858263 -0.10361072 -0.1111477 0.15484972
-0.086500034 0.10102288 0.023163788 0.008416494 0.10135282 -0.061167296 0.08445853 -0.10609206
-0.07430736 0.08774655 0.06881502 0.0033251727 -0.05161023 -0.11537768 0.06557124 0.016526232
-0.027587041 0.029935503 0.09055751 -0.08533044 -0.072228424 0.080867566 0.102851436 -0.051512126
-0.19105802 0.015668092 0.036607023 -0.012412096 0.16167837 -0.13890523 0.053267863 -0.122951806
0.04480524 0.08087782 0.098965466 0.10610378 -0.07397474 -0.09976845 -0.10124115 0.12059255
0.078201704 -0.08719465 0.040677764 0.10325132 -0.08968036 0.14984235 0.05753816 -0.00065592874
0.05963566 0.13001427 0.05615972 0.070020154 0.07170033 -0.0062851217 -0.16370678 0.06436233
00000000: e84b 0abe 14f4 c5bc 9001 d03d 04f7 e4bb
00000010: e693 de3d 1037 34bd 955d 873d 9ef1 42bd
00000020: 409a 5a3d 0990 df3c 5b45 a13d c443 8ebd
00000030: b488 1bbd af07 bc3c 9c57 39be 83f1 dfbd
00000040: d1e3 05be 2ed3 863b 5d97 bf3d 6cd2 9bbc
00000050: aecb 863a 8840 523d 1bad f1bd 36a2 063e
00000060: dacd a1bc 1f59 dcbd 829e 483e 94be c2bd
00000070: 1fe9 9e3c c207 0cbe c64d 69bc c856 82bd
00000080: 05a0 073d d416 a5bd 5546 cd3d 41a4 fcbd
00000090: f369 b03d 4050 14be 343f d53d 9778 f039
000000a0: 2077 82bb 9759 dbbc 2497 c23d f5f1 3f3d
000000b0: 1c0d b0bc ae7d f43c 6791 91bd 22cd 0d3e
000000c0: 54fa acbb bfa6 3fbb 9686 29bd 1376 b33d
000000d0: 381c 93bd 7ad9 d93d d335 5a3d 1e91 da3d
000000e0: fc64 8c3c b564 27be 5b28 a93d 604e 7dbd
000000f0: eab1 86bd 8a4c 53bd 783f 163e 82df 193e
00000100: 4a3b 53b9 3fd4 313d d02f 30be 7bd1 b73c
00000110: 19a5 d6bd 64f5 813d 2831 f2bd f345 14bd
00000120: 1ad5 c03d 6d38 363e 8f58 6bbd dbcf eabd
00000130: f75f 57bc f09f c03d fb1d ba3b b6ce 40bc
00000140: 6870 07be ffea c63d 4263 0d3e 16e3 31bd
00000150: 92ec a73d b06b d43d 77b2 193e cd2c 48bd
00000160: 0de5 03bd 71fe 033e 3b57 953d 94ee 393e
00000170: 587f 6abc 5e7c 033d 87c2 063e 9491 98bd
00000180: 6403 723d 3ee2 c6ba 7941 013e 7802 babd
00000190: f855 bc3c d410 a03d 9be0 28be 295f 17be
000001a0: 60c7 bdbd 8f93 933d 97b2 933d c34d 92bd
000001b0: 71c4 683d fbf5 d4bd 6c52 c0bd 8c30 cf3d
000001c0: 201e 863d 0c53 f5bb 3887 fc3c 2584 a3bc
000001d0: 9a5a 633d 2009 e6bc 1ca1 69bd d1ab 003e
000001e0: 4b47 97bc 5712 183d b47d 0bbd 5d68 c63d
000001f0: 53a2 0f3e 6d4e 883d 2f66 8a3d 766a f03d
00000200: bf05 ba3c de0e 723d e27b 2a3e 719e 2c3e
00000210: 6307 b0bd e178 d43d d69e d53d c955 193c
00000220: 09f8 213e f56d 6bbd 8790 953d 635f 333e
00000230: faa9 9cbd 9808 85bd f3e4 04be fc4b 84bb
00000240: 95d9 18be e5c3 a6bc c335 163d 6348 ac3d
00000250: 4c30 973d fe1e 753d 456b 313d c2f9 ecbd
00000260: f278 bbbd acf1 013d 66d9 013e 524e 65bc
00000270: c633 0ebd db49 d1bd 6eb3 45bd 3755 f7bd
00000280: d28b 093e 21ec 9abc ca91 07be 4062 2a3d
00000290: 103b eb3c b0ac 3ebd ac17 0d3d 3bb2 e43d
000002a0: 7842 fbbd 444f b2bd 3fbe c0bc 4d18 f0bd
000002b0: bd43 23be 8472 173e f2ab d53b fd86 68bd
000002c0: 487e 18bd 7590 05be 4eec bd3d 1d4f 64bb
000002d0: d674 cfbd c843 10be eb5e 743d 9c45 963b
000002e0: 1068 0dbd 51fe 6ebd d38b bdbd 3426 e73c
000002f0: f2da c03d f3bf 83bd 0fd3 43bc d997 c1bd
00000300: 85b7 41bd 3c94 1a3e 8f68 3a3b cf9e 293e
00000310: f2bf 00bc db31 d4bd 68a1 e3bd ed90 1e3e
00000320: ee26 b1bd 15e5 ce3d fcc1 bd3c 56e5 093c
00000330: 1192 cf3d 8f8a 7abd 98f8 ac3d cb46 d9bd
00000340: 752e 98bd 77b4 b33d e4ee 8c3d 24eb 593b
00000350: 4065 53bd 224b ecbd 374a 863d 0562 873c
00000360: 38fe e1bc 4d3b f53c 3776 b93d bac1 aebd
00000370: 7fec 93bd e59d a53d c6a3 d23d 61fe 52bd
00000380: b7a4 43be 5f5a 803c 3ff1 153d 1b5c 4bbc
00000390: 048f 253e 2c3d 0ebe 672f 5a3d 28ce fbbd
000003a0: b385 373d 45a3 a53d 68ae ca3d f04c d93d
000003b0: 1280 97bd 6753 ccbd 8557 cfbd 3af9 f63d
000003c0: 3728 a03d 1c93 b2bd ba9d 263d 6e75 d33d
000003d0: 56aa b7bd 4670 193e 22ad 6b3d a2f2 2bba
000003e0: 8644 743d 7622 053e bc07 663d ba66 8f3d
000003f0: 9fd7 923d 6cf3 cdbb c0a2 27be 66d0 833d

lstm.bias_ih_l0 f4 [180]
-0.1254153 -0.017672276 0.15287797 0.038571812 0.0333383 -0.17418459 0.06704342 0.12408156
-0.046394333 0.122559816 0.061604008 -0.12294793 -0.0946435 0.017747182 -0.11453306 -0.098177694
0.03814646 -0.046491135 0.011300382 -0.03510359 0.11830972 0.13140535 0.11974813 -0.07781895
-0.017794354 0.10445766 0.1041815 -0.024683656 0.10109942 0.0011628667 0.06804261 0.109318845
0.089765415 -0.100351356 -0.07606598 0.047504663 0.09832261 -0.01416228 0.15349771 0.0070882896
-0.065714166 -0.009989769 -0.12293357 0.05385416 -0.0034098227 0.12617429 -0.085631095 0.124189556
-0.10225079 -0.040808734 -0.10683295 0.08079617 0.082655 -0.13080329 -0.120580904 0.0108557
-0.021194164 0.015186256 0.05864312 -0.014597757 0.12901746 -0.00887443 -0.0670832 0.061166923
-0.09732071 -0.053318836 0.048097916 -0.05917947 -0.11044925 0.09820662 0.07246561 0.052867703
0.0538626 -0.13396141 -0.059495345 -0.028716318 0.14708625 -0.078017876 -0.096425444 -0.041381493
0.010292812 0.063313134 0.11360924 0.12079399 0.023357056 0.14192583 0.085363016 0.081355795
-0.12224605 0.09731703 -0.055163834 -0.1404786 -0.06355972 0.10827214 0.03295997 0.1015783
0.09847896 0.011099159 0.13134694 0.02174546 -0.05278044 -0.03855903 0.09353928 0.055443298
0.09637257 0.011630935 -0.11689435 0.018501202 0.015405417 -0.107486606 0.036521792 -0.010530777
0.107741535 0.013848673 -0.04593683 0.072514884 0.023627575 -0.012125085 0.06411879 0.14534089
0.06829328 0.010031676 0.10008764 -0.06730122 0.13065703 -0.09076505 -0.0027682567 0.12209378
0.067920215 -0.01960964 0.09264067 0.09850752 -0.14080602 -0.017276727 -0.14105156 -0.04101745
0.01646331 -0.03192427 -0.036023848 0.062125694 -0.030394116 -0.13871132 0.053855352 -0.13716345
-0.09164493 0.08557405 0.099153556 -0.03361743 -0.079019405 0.098403804 -0.13846204 0.07182696
0.103699684 0.07586402 0.07195366 0.05364082 -0.101415455 -0.04683534 0.15033668 0.15258427
0.034324672 0.053948373 -0.13206491 0.124303624 -0.08147807 -0.027705789 0.15729323 -0.05561657
-0.07410442 0.033839244 0.1140976 0.13895306 0.03233798 0.120541506 0.13033421 -0.016260883
-0.11278092 0.011048864 -0.040962465 0.16097116
00000000: de6c 00be 73c5 90bc 0b8c 1c3e 7afd 1d3d
00000010: be8d 083d 725d 32be 104e 893d 791e fe3d
00000020: fc07 3ebd a400 fb3d 7c54 7c3d 20cc fbbd
00000030: 74d4 c1bd 8a62 913c 4f90 eabd 6311 c9bd
00000040: 763f 1c3d 7d6d 3ebd 3d25 393c c8c8 0fbd
00000050: 5e4c f23d 208f 063e 823e f53d 8b5f 9fbd
00000060: 77c5 91bc e6ed d53d 1c5d d53d 6135 cabc
00000070: 360d cf3d 556b 983a ed59 8b3d 8fe2 df3d
00000080: eed6 b73d 0385 cdbd 7bc8 9bbd 4094 423d
00000090: 5d5d c93d e808 68bc 812e 1d3e e244 e83b
000000a0: 2695 86bd 21ac 23bc 98c4 fbbd 2e96 5c3d
000000b0: 5577 5fbb d533 013e 5b5f afbd 1857 fe3d
000000c0: dd68 d1bd 0f27 27bd 3ccb dabd 7678 a53d
000000d0: 0647 a93d 4cf1 05be 1ff3 f6bd 1bdc 313c
000000e0: 629f adbc c6cf 783c c533 703d 6e2b 6fbc
000000f0: 271d 043e 0f66 11bc eb62 89bd 2b8a 7a3d
00000100: 1550 c7bd da64 5abd 5202 453d 2c66 72bd
00000110: 3733 e2bd 8d20 c93d da68 943d ce8b 583d
00000120: 089f 5c3d 2e2d 09be 64b1 73bd 7c3e ebbc
00000130: c79d 163e d6c7 9fbd b47a c5bd a47f 29bd
00000140: 2fa3 283c 51aa 813d f6ab e83d d762 f73d
00000150: 4c57 bf3c 0155 113e ced2 ae3d de9d a63d
00000160: 235c fabd 274e c73d 79f3 61bd 9fd9 0fbe
00000170: 992b 82bd c9bd dd3d 0901 073d 4908 d03d
00000180: 56af c93d 3fd9 353c d07f 063e 8923 b23c
00000190: 4d30 58bd 13f0 1dbd 8691 bf3d 8318 633d
000001a0: fb5e c53d ad8f 3e3c 4e66 efbd d58f 973c
000001b0: 0167 7c3c f021 dcbd e097 153d 4889 2cbc
000001c0: 98a7 dc3d 8be5 623c 4228 3cbd af82 943d
000001d0: 9e8e c13c 4ba8 46bc b650 833d 3ed4 143e
000001e0: 59dd 8b3d e65b 243c c0fa cc3d 39d5 89bd
000001f0: f5ca 053e 07e3 b9bd a46b 35bb 4e0c fa3d
00000200: c119 8b3d 65a4 a0bc 64ba bd3d 50be c93d
00000210: 742f 10be ec87 8dbc d26f 10be ea01 28bd
00000220: 10de 863c 06c3 02bd be8d 13bd 8377 7e3d
00000230: 15fd f8bc 570a 0ebe 6e97 5c3d 9374 0cbe
00000240: 56b0 bbbd 7341 af3d 0511 cb3d 6eb2 09bd
00000250: edd4 a1bd ef87 c93d fec8 0dbe 031a 933d
00000260: 8060 d43d 985e 9b3d 715c 933d 7ab6 5b3d
00000270: e8b2 cfbd 6ad6 3fbd dcf1 193e 0d3f 1c3e
00000280: 0798 0c3d f8f8 5c3d 063c 07be e692 fe3d
00000290: f9dd a6bd 40f7 e2bc 7a11 213e 33ce 63bd
000002a0: 0fc4 97bd 059b 0a3d 01ac e93d b649 0e3e
000002b0: d474 043d 77de f63d 5576 053e 8b35 85bc
000002c0: aff9 e6bd 4b06 353c 42c8 27bd a0d5 243e

lstm.bias_hh_l0 f4 [180]
-0.118650116 -0.063914016 -0.08361298 -0.091638304 0.095015466 -0.17453921 0.0001406041 -0.06843391
-0.051850423 -0.03368072 0.06439609 0.08613698 -0.016436791 0.020515347 0.027610807 0.14175309
0.04646452 -0.028395569 0.117526434 -0.094564065 0.08090852 0.12463093 -0.06519179 0.11052594
0.094629966 -0.09280787 0.058894936 0.121460214 0.033162564 -0.023241246 -0.0069365418 -0.09006313
0.023989346 -0.13602924 -0.113166235 -0.05924231 -0.13243696 0.15974697 -0.026731696 -0.054994475
0.04735524 0.069381446 0.11620735 -0.05251683 0.10759396 -0.12471957 -0.10268846 -0.03771151
0.026338141 -0.09298432 -0.065427125 0.05926378 0.026953608 0.100574695 0.07623407 0.06983937
-0.095052816 0.09427877 -0.12028731 0.060770635 -0.09079559 0.021685643 -0.13479476 -0.015248914
0.11003009 -0.056573264 0.09691788 -0.019815737 0.17171994 0.16404562 -0.05385623 -0.025435938
-0.028420096 -0.04322709 0.054450966 -0.09203196 -0.08495256 -0.038583137 -0.13112569 -0.13184512
0.05710454 -0.12122922 0.102871045 -0.07338191 -0.0038413957 0.09600684 -0.14090301 -0.1433171
0.011790656 0.02461362 0.04617752 0.05322193 0.028407184 0.050804086 0.10582776 -0.012531656
0.0954659 -0.07180877 0.12019339 -0.03620395 0.049821954 -0.098699324 -0.09212786 -0.09865217
0.07161877 0.032560002 -0.11573903 0.13766605 0.03794563 0.12665361 0.018988961 0.02888074
0.08801064 -0.09458615 0.16846883 -0.14279288 0.032709546 -0.084040515 -0.105852425 0.11628447
-0.039051026 -0.022148676 0.094467044 0.14411911 -0.1355416 -0.008432625 0.037068225 0.12955041
-0.05087398 -0.036883414 -0.08657524 0.048665483 0.030331649 -0.0030127561 -0.038853083 -0.11266654
-0.026796054 -0.02898408 0.05761686 0.047332816 0.043627348 -0.10417809 0.016740123 -0.019010302
0.15932001 0.102025546 -0.12607834 -0.06263665 -0.101111494 -0.006363462 -0.12648982 0.04992024
-0.06472522 -0.06185642 0.03350123 -0.024815744 0.12547997 0.14800751 -0.07892083 0.09386677
0.03345346 0.09389276 -0.046556156 0.007781709 0.0025602302 0.10331744 0.08452546 0.045254346
0.019503385 -0.10558755 -0.089014776 -0.08142436 -0.12869875 0.16185033 -0.04347007 -0.0904328
-0.062496662 0.08797962 -0.08377225 -0.015828818
00000000: d5fe f2bd 5ae5 82bd 483d abbd ddac bbbd
00000010: 7897 c23d 68ba 32be 206f 1339 1427 8cbd
00000020: 1c61 54bd cbf4 09bd 19e2 833d 9668 b03d
00000030: 73a6 86bc cd0f a83c 0f30 e23c b927 113e
00000040: 9551 3e3d d39d e8bc b3b1 f03d ceaa c1bd
00000050: 5eb3 a53d 803e ff3d 4683 85bd 6d5b e23d
00000060: 5bcd c13d 0d12 bebd d13b 713d 22c0 f83d
00000070: 78d5 073d 6d64 bebc ee4b e3bb 0573 b8bd
00000080: 4e85 c43c 404b 0bbe b3c3 e7bd 10a8 72bd
00000090: 8e9d 07be b694 233e 6efc dabc e341 61bd
000000a0: 91f7 413d dc17 8e3d 1efe ed3d e31b 57bd
000000b0: 395a dc3d f96c ffbd 544e d2bd 6277 1abd
000000c0: 16c3 d73c 906e bebd a8fe 85bd 94be 723d
000000d0: d0cd dc3c 1bfa cd3d 9c20 9c3d f207 8f3d
000000e0: 0dab c2bd 3a15 c13d 3159 f6bd a1ea 783d
000000f0: 0af3 b9bd 17a6 b13c a307 0abe 95d6 79bc
00000100: 7557 e13d 5eb9 67bd e27c c63d 9d54 a2bc
00000110: 5ad7 2f3e 93fb 273e 5a98 5cbd 075f d0bc
00000120: 43d1 e8bc e40e 31bd fa07 5f3d 417b bcbd
00000130: 9cfb adbd 5a09 1ebd d045 06be 6802 07be
00000140: 73e6 693d 0647 f8bd 0eae d23d 4149 96bd
00000150: edbf 7bbb 3c9f c43d e148 10be b8c1 12be
00000160: 982d 413c 81a2 c93c a424 3d3d 3dff 593d
00000170: 2fb6 e83c f217 503d 3abc d83d 9351 4dbc
00000180: a083 c33d 7a10 93bd f427 f63d 984a 14bd
00000190: 1b12 4c3d df22 cabd 88ad bcbd 260a cabd
000001a0: ddac 923d a35d 053d 9608 edbd 54f8 0c3e
000001b0: e06c 1b3d 7cb1 013e bd8e 9b3c 4d97 ec3c
000001c0: ec3e b43d 62b6 c1bd 1883 2c3e 4c38 12be
000001d0: 72fa 053d 6f1d acbd 28c9 d8bd 8d26 ee3d
000001e0: f8f3 1fbd 2471 b5bc f077 c13d f693 133e
000001f0: 6bcb 0abe fe28 0abc dad4 173d dda8 043e
00000200: 3c61 50bd 1013 17bd 5c4e b1bd 7555 473d
00000210: 147a f83c a971 45bb 6924 1fbd b7bd e6bd
00000220: 6683 dbbc 0570 edbc a8ff 6b3d 0ee0 413d
00000230: 97b2 323d 535b d5bd 9522 893c 7ebb 9bbc
00000240: c924 233e c5f2 d03d ae1a 01be a547 80bd
00000250: 8b13 cfbd 9784 d0bb 8c86 01be 2a79 4c3d
00000260: a88e 84bd 285d 7dbd 9638 093d 634a cbbc
00000270: d27d 003e 488f 173e 3ea1 a1bd 393d c03d
00000280: 7f06 093d d94a c03d abb1 3ebd b5fd fe3b
00000290: 89c9 273b 1898 d33d af1b ad3d 9f5c 393d
000002a0: 90c5 9f3c 493e d8bd 614d b6bd d1c1 a6bd
000002b0: 9bc9 03be 18bc 253e ac0d 32bd d534 b9bd
000002c0: 80fc 7fbd a92e b43d c990 abbd 70ab 81bc

fc.weight f4 [1, 45]
-0.096482165 0.077798754 0.042817958 -0.15568788 -0.08329657 -0.106516115 0.063559994 0.08441447
0.04487247 -0.06163087 -0.05834259 0.049095023 -0.059387997 -0.054163 -0.09835112 -0.0112305535
0.014875629 0.12801528 0.14913183 -0.0756061 -0.026047828 -0.111767255 -0.12329243 0.17499663
-0.0010227459 -0.05046283 0.06955248 0.07029765 0.07449077 0.07444299 -0.04329709 -0.11592827
-0.11906945 0.14991887 0.12001307 -0.10770753 0.12548068 -0.1584293 0.1274336 0.1294269
0.10285784 0.075279646 -0.08975388 -0.07591552 0.087909
00000000: 7198 c5bd f454 9f3d e261 2f3d a56c 1fbe
00000010: 6497 aabd 1f25 dabd be2b 823d 7ee1 ac3d
00000020: 32cc 373d a770 7cbd a4f8 6ebd dd17 493d
00000030: d440 73bd 06da 5dbd 506c c9bd 5b00 38bc
00000040: e9b8 733c 7016 033e 04b6 183e 5fd7 9abd
00000050: 4162 d5bc 3be6 e4bd be80 fcbd 5132 333e
00000060: a80d 86ba 1db2 4ebd 8871 8e3d 37f8 8f3d
00000070: 9e8e 983d 9175 983d 4a58 31bd cd6b edbd
00000080: afda f3bd 5584 193e 6ac9 f53d c495 dcbd
00000090: 027e 003e 4a3b 22be f47d 023e 7c88 043e
000000a0: 22a7 d23d 372c 9a3d e2d0 b7bd 9979 9bbd
000000b0: a209 b43d
